Hw/H1_Regression/weight.npy (npy, 1288 bytes, 1 tensors)

array f8 [145, 1]
00000000: 6264 2b82 8653 3540 62c1 eb4e 5e20 e3bf
00000010: b6a7 f9f5 8e23 f33f 86b1 37a7 267f fbbf
00000020: ea98 2048 eee4 70bf 4c4c 86de c71b f13f
00000030: fb87 7faa 4a33 d7bf cf75 8536 f01b fdbf
00000040: eb3d d69a a9d2 0040 4249 c240 2a29 c03f
00000050: 696f 1e78 8736 ba3f a05d e8f0 6f35 a63f
00000060: 56bd 30fe 5f16 ab3f 37fc 760d c533 95bf
00000070: d7d7 fbde 60a3 d0bf 02b8 652f ae44 c33f
00000080: 1b0a 9ee8 c4cb e23f 8a17 af3a 415b 8e3f
00000090: 5f31 e51a 4b09 b03f a634 3057 07cf c4bf
000000a0: c18e 0365 9edd c23f a461 9a4c c19f 97bf
000000b0: 60b6 97a4 19ab c4bf 0de8 698c 6432 b33f
000000c0: ed4f f5c7 23d8 d93f 4a91 1f18 222a d43f
000000d0: efc5 392d c4cd cebf 4430 1e73 3bad ce3f
000000e0: 7bba e356 2079 d83f a939 51ac 4ce4 e0bf
000000f0: 2aee cc11 7aca ad3f 716d 8798 3994 c43f
00000100: 6852 1345 ec4b af3f 9f6c 2a4c f7a8 be3f
00000110: cd7e 326f e062 ce3f 63c4 055a 80c3 f0bf
00000120: 2198 7043 7231 debf 7384 daea ade5 e1bf
00000130: af68 f806 8849 903f 7317 43ec e54e e1bf
00000140: 75f6 e880 10f7 e5bf 86b1 912c 1e2a b1bf
00000150: 39da c185 80f9 c4bf 5b21 e86e bf5b 06c0
00000160: 34c8 61ad bb6f f7bf a95a c48a ce10 edbf
00000170: 4586 b723 3155 dfbf ef7d d626 5eb1 05c0
00000180: 1a8c d4db e68c c13f dd3f 608d e8d0 d8bf
00000190: 4d38 8313 ca9e bf3f 6809 4af9 9dc7 0940
000001a0: 7bde 527d 6d68 fa3f efa7 882f b119 f43f
000001b0: 69eb e5c0 b9d2 c23f b740 48de efef 0440
000001c0: d0a9 4e9d 3da6 ff3f 3496 7f69 f3c6 c43f
000001d0: cd39 a626 554c c5bf a4a1 f1d9 ee45 d7bf
000001e0: eabb 80d5 e778 913f 9634 308f 1335 e2bf
000001f0: bb8e d268 42ec dabf 16d4 b171 c16c c6bf
00000200: a03e 8113 b152 fd3f fd73 8756 9a7f d73f
00000210: d33a 2357 53f2 e9bf 1514 d51c 23f4 f03f
00000220: 4dfc ce6f 7cf3 b9bf 17df 24c5 59ed f0bf
00000230: 3144 6790 3155 f03f abfa 2377 57d4 aabf
00000240: 0caf 9f17 c027 ed3f fed0 07ff a146 eabf
00000250: ac9e 1bfd 506b 0c40 53c0 a199 4726 0cc0
00000260: 1ef8 47a6 d65c e6bf 3671 1dec 7263 2040
00000270: 7a58 418f ae3c 22c0 c758 ebc5 b86b d23f
00000280: e1d1 ce0a 83b8 2f40 a6b0 db08 d588 7a3f
00000290: d14d 9f03 9a2a b7bf ac08 1837 be00 833f
000002a0: 7600 480b 0a50 babf a43a 69b6 9759 bb3f
000002b0: db42 7369 2dfc a13f 12db b4c9 e17f b6bf
000002c0: 10a9 9c1f 482a c4bf 30cb 5566 8310 c03f
000002d0: 2edb aae9 f1d9 d73f 9aed bc1c ec7d ebbf
000002e0: b959 bc24 2f92 e2bf baf1 1547 e0f5 f23f
000002f0: 41da 3052 fc41 f5bf 58e8 6060 bf89 ad3f
00000300: a84f a247 55c9 e43f d89a 8465 b8b9 cc3f
00000310: 607a 7cc0 d3b3 b4bf b95c 4b8b fe17 bfbf
00000320: 80b3 0234 ee5a a2bf 07e8 b07c dabb b93f
00000330: 997e d9e0 864b cabf 93db 18e5 e95b d23f
00000340: 0412 4133 4563 cd3f 0f61 0b55 23db d4bf
00000350: 86bd d2b8 a38a c03f 50d0 1245 d2ed d9bf
00000360: 395c ad68 fa7a c6bf b310 7159 eb0c d83f
00000370: 1de6 1aa9 7893 c33f 23a7 5436 9f02 d7bf
00000380: ba9e 5650 256f c2bf cbb5 7587 ab49 c63f
00000390: bfa2 28eb e80a b1bf 6db1 719e 7b4b c73f
000003a0: 54c9 f315 53bf ad3f a4f2 d27c 63b6 c53f
000003b0: d812 b6a6 6cc6 cebf 8b67 b14e eae6 bb3f
000003c0: 5023 fc36 fb39 a53f 3da1 9e7a edbe b8bf
000003d0: f63e 8cd8 ce4a b83f f9a1 1121 f7a0 c7bf
000003e0: 542b 37a0 99fe a33f bb92 20d9 eecf 82bf
000003f0: fd60 04cc 8a2f 773f c4d2 3a73 7ad3 cebf
00000400: edc5 5098 6682 953f 0560 a0f2 0814 c2bf
00000410: b6ff dfb9 cade c83f 00b7 a723 5b47 ac3f
00000420: 660c 9a5c 83d0 bdbf 2ed8 0f64 cc9d b4bf
00000430: 07fa 13da 50af a6bf e8f8 d885 9e17 a0bf
00000440: 270f b3c9 2518 c1bf 3d71 52d4 5201 b03f
00000450: 8e32 474d 87df bbbf 031a 64f5 181c cbbf
00000460: faa9 1cfb bd50 9dbf 5380 8443 a10e d63f
00000470: 1f7e b281 f5fd 96bf 637d ea21 80d0 d2bf
00000480: ac36 3d43 ab14 c83f
21.32627118644121 -0.597701219694539 1.196181259957013 -1.7185427219329497 -0.0041245754128224985 1.0692824070327047 -0.3625055947323969 -1.819320881818715
2.102862558043616 0.126256257649013 0.10239454920377757 0.04337644401328622 0.052905082491970276 -0.02070529837305576 -0.25997182632215526 0.15053345979998772
0.587374166804071 0.014822492221252554 0.06264180571196708 -0.16256801373711943 0.14738826687163534 -0.023070354748229285 -0.16147156273602814 0.074987682610214
0.4038171246259015 0.31507160526077327 -0.24065448959622368 0.23966162796966917 0.3823929642229939 -0.5278685918399805 0.058185400650895794 0.16077346751886126
0.061126120979371035 0.11976571664347312 0.2373924773173627 -1.0477298275475497 -0.4717679651824956 -0.5592870318397573 0.015905499864040603 -0.5408811201566394
-0.6864092366956372 -0.067048917657024 -0.16386419802775423 -2.7947987236586136 -1.4647785923703056 -0.9083016119282848 -0.4895747040555743 -2.7116053613860838
0.13711248144053984 -0.3877507572769881 0.12351668335324568 3.222469279834673 1.6504950423676792 1.2562724930562543 0.14705583495000532 2.6171567312049677
1.9780861038985798 0.16232149745262492 -0.16639198672460367 -0.3636433723791248 0.017062780767613285 -0.5689790531775027 -0.42067013012477233 -0.17519395877357685
1.8326884042652765 0.3671632618914485 -0.8108307554155892 1.059603798509902 -0.10137155275059336 -1.057946939557899 1.0207992211110304 -0.05240128831245746
0.9111023389245658 -0.8211221676888554 3.5524005674413583 -3.5186912538993425 -0.6988328216245951 8.194236162752173 -9.11851928398777 0.2878248150640385
15.860374772783816 0.006478149572768077 -0.09049379909929846 0.009278760963756426 -0.10278380179807009 0.106835824998806 0.03512708580240594 -0.08788882421945868
-0.15754033607056117 0.1255039453204403 0.3726773054035445 -0.8591213761605332 -0.580344745397091 1.185028340986817 -1.328609772737437 0.057691555514296666
0.649576797399722 0.2244177337353992 -0.0808689446389308 -0.12145987416021144 -0.03584999451536586 0.10052266639914374 -0.2054298971079234 0.2868599641109821
0.22959198954244198 -0.32587512307283445 0.12923094296045806 -0.4051404642625629 -0.17562799559775202 0.3757885335401269 0.15293796784480743 -0.35953502946596155
-0.14401689932605227 0.17412323107002545 -0.06657272092037213 0.18199105488327963 0.058100315503809924 0.169628559064127 -0.24043043270298514 0.10899223729339107
0.041457987272287 -0.09666332477229829 0.0948914793664207 -0.18459977259341523 0.03905181961780238 -0.009185663224408605 0.0056605741267718975 -0.2408288061757472
0.02100525192890317 -0.1412364182185685 0.19429906917502898 0.055231903173860175 -0.11646290789399102 -0.08053281252782149 -0.04430630361638426 -0.03143020042306138
-0.1335494265423389 0.0625201958050114 -0.10887952458069547 -0.21179496747954837 -0.02862831921735596 0.34464294045938465 -0.022453151742068408 -0.29397586166483886
0.18813076766166625
